machine_learning/code_source/p3/data/theta_star.npy (npy, 528 bytes, 1 tensors)

array f8 [50, 1]
00000000: 572d 6aa9 1c60 efbf faf8 e45e e987 de3f
00000010: 39cd acec 5540 b4bf 914b 4cb2 368f cd3f
00000020: 5f40 41bf 75b1 f3bf 76a1 5423 3dfa f33f
00000030: b70e d64b c8e1 e13f 61f7 345f d970 e13f
00000040: 29b0 266d af87 fa3f 8352 0a73 e808 e33f
00000050: 98f6 816f 904c f4bf ad2d 0284 8b5c eebf
00000060: d42c 8919 058c f33f facd 4d66 7fea d43f
00000070: 511c aaa3 8f5b f3bf 821f 1c86 6b02 dbbf
00000080: c97e a6f6 d3c3 e83f 1720 2504 18e7 e13f
00000090: 988a 20dd ee8e f0bf 80f6 7efe d6e9 d3bf
000000a0: 7a75 c3f3 a8a1 ecbf 953c 13a4 9609 b2bf
000000b0: 5455 6820 96cd 9a3f 4f6e 803e 36fe e6bf
000000c0: 613c 5095 597e c43f d431 51fe 9ac6 f1bf
000000d0: fe3a 0fa5 f863 d9bf fd9f 6d7c c008 fb3f
000000e0: f131 6c55 91f8 dbbf e783 2608 a59f f3bf
000000f0: dd9e c23f dc2d fdbf 8146 d7ef 033c 5bbf
00000100: 92d2 5a3b cbc8 e9bf 9b05 4c73 3aaf a73f
00000110: 6c55 f482 adf4 f43f 1eda e35f ada5 f63f
00000120: eeab 1ca1 398f f63f f175 aa60 7ab9 de3f
00000130: b45a 9581 5982 f1bf f9af de6e 6a2c f73f
00000140: e7fb 3c55 a4d3 df3f 9881 d269 4031 9a3f
00000150: 6a2a 3009 bcf8 c63f 9e27 99fa 4b7b d13f
00000160: aeec 5288 1f3a f93f 95bf baab d010 e9bf
00000170: 80bb c610 fb6a f0bf 63a3 a46e 0415 d43f
00000180: 3e56 dcf7 2900 e03f 2d65 1171 10b0 e93f
-0.980482417 0.477045386 -0.079106684 0.230933034 -1.230825183 1.248593462 0.558811329 0.545025526
1.658126284 0.594837403 -1.268692432 -0.948796995 1.221684551 0.326812601 -1.209853782 -0.422022706
0.773904783 0.559459694 -1.034895767 -0.31114745 -0.894733883 -0.070458808 0.026174875 -0.718531725
0.160105894 -1.110987657 -0.396726762 1.689636694 -0.437046369 -1.226475746 -1.823696374 -0.001662258
-0.805760971 0.046258761 1.309735786 1.415448546 1.409967069 0.480070681 -1.094323641 1.44834369
0.497292598 0.025578505 0.179465775 0.273150439 1.576690228 -0.783302627 -1.026118341 0.313782795
0.500020012 0.802742215
